…
I1011 07:11:12.404734 15944 solver.cpp:96] Creating training net from net file: .obj_train_gaze25.prototxt
I1011 07:11:12.405434 15944 net.cpp:50] Initializing net from parameters: 
name: "VGG_CNN_M"
state {
  phase: TRAIN
}
layer {
  name: "data"
  type: "ImageData"
  top: "data"
  top: "label"
  include {
    phase: TRAIN
  }
  transform_param {
    mirror: true
    crop_size: 224
    mean_file: "imagenet_mean.binaryproto"
  }
  image_data_param {
    source: "GAZE25_data/gaze_obj_train.txt"
    batch_size: 128
    shuffle: true
    new_height: 256
    new_width: 256
  }
}
layer {
  name: "conv1"
  type: "Convolution"
  bottom: "data"
  top: "conv1"
  param {
    lr_mult: 1
    decay_mult: 1
  }
  param {
    lr_mult: 2
    decay_mult: 0
  }
  convolution_param {
    num_output: 96
    kernel_size: 7
    stride: 2
    weight_filler {
      type: "gaussian"
      std: 0.01
    }
    bias_filler {
      type: "constant"
      value: 0
    }
  }
}
layer {
  name: "relu1"
  type: "ReLU"
  bottom: "conv1"
  top: "conv1"
}
layer {
  name: "norm1"
  type: "LRN"
  bottom: "conv1"
  top: "norm1"
  lrn_param {
    local_size: 5
    alpha: 0.0005
    beta: 0.75
    k: 2
  }
}
layer {
  name: "pool1"
  type: "Pooling"
  bottom: "norm1"
  top: "pool1"
  pooling_param {
    pool: MAX
    kernel_size: 3
    stride: 2
  }
}
layer {
  name: "conv2"
  type: "Convolution"
  bottom: "pool1"
  top: "conv2"
  param {
    lr_mult: 1
    decay_mult: 1
  }
  param {
    lr_mult: 2
    decay_mult: 0
  }
  convolution_param {
    num_output: 256
    pad: 1
    kernel_size: 5
    stride: 2
    weight_filler {
      type: "gaussian"
      std: 0.01
    }
    bias_filler {
      type: "constant"
      value: 1
    }
  }
}
layer {
  name: "relu2"
  type: "ReLU"
  bottom: "conv2"
  top: "conv2"
}
layer {
  name: "norm2"
  type: "LRN"
  bottom: "conv2"
  top: "norm2"
  lrn_param {
    local_size: 5
    alpha: 0.0005
    beta: 0.75
    k: 2
  }
}
layer {
  name: "pool2"
  type: "Pooling"
  bottom: "norm2"
  top: "pool2"
  pooling_param {
    pool: MAX
    kernel_size: 3
    stride: 2
  }
}
layer {
  name: "conv3"
  type: "Convolution"
  bottom: "pool2"
  top: "conv3"
  param {
    lr_mult: 1
    decay_mult: 1
  }
  param {
    lr_mult: 2
    decay_mult: 0
  }
  convolution_param {
    num_output: 512
    pad: 1
    kernel_size: 3
    weight_filler {
      type: "gaussian"
      std: 0.01
    }
    bias_filler {
      type: "constant"
      value: 0
    }
  }
}
layer {
  name: "relu3"
  type: "ReLU"
  bottom: "conv3"
  top: "conv3"
}
layer {
  name: "conv4"
  type: "Convolution"
  bottom: "conv3"
  top: "conv4"
  param {
    lr_mult: 1
    decay_mult: 1
  }
  param {
    lr_mult: 2
    decay_mult: 0
  }
  convolution_param {
    num_output: 512
    pad: 1
    kernel_size: 3
    weight_filler {
      type: "gaussian"
      std: 0.01
    }
    bias_filler {
      type: "constant"
      value: 1
    }
  }
}
layer {
  name: "relu4"
  type: "ReLU"
  bottom: "conv4"
  top: "conv4"
}
layer {
  name: "conv5"
  type: "Convolution"
  bottom: "conv4"
  top: "conv5"
  convolution_param {
    num_output: 512
    pad: 1
    kernel_size: 3
    weight_filler {
      type: "gaussian"
      std: 0.01
    }
    bias_filler {
      type: "constant"
      value: 1
    }
  }
}
layer {
  name: "relu5"
  type: "ReLU"
  bottom: "conv5"
  top: "conv5"
}
layer {
  name: "pool5"
  type: "Pooling"
  bottom: "conv5"
  top: "pool5"
  pooling_param {
    pool: MAX
    kernel_size: 3
    stride: 2
  }
}
layer {
  name: "fc6"
  type: "InnerProduct"
  bottom: "pool5"
  top: "fc6"
  param {
    lr_mult: 1
    decay_mult: 1
  }
  param {
    lr_mult: 2
    decay_mult: 0
  }
  inner_product_param {
    num_output: 4096
    weight_filler {
      type: "gaussian"
      std: 0.005
    }
    bias_filler {
      type: "constant"
      value: 1
    }
  }
}
layer {
  name: "relu6"
  type: "ReLU"
  bottom: "fc6"
  top: "fc6"
}
layer {
  name: "drop6"
  type: "Dropout"
  bottom: "fc6"
  top: "fc6"
  dropout_param {
    dropout_ratio: 0.5
  }
}
layer {
  name: "fc7_gtea"
  type: "InnerProduct"
  bottom: "fc6"
  top: "fc7_gtea"
  param {
    lr_mult: 1
    decay_mult: 1
  }
  param {
    lr_mult: 2
    decay_mult: 0
  }
  inner_product_param {
    num_output: 2048
    weight_filler {
      type: "gaussian"
      std: 0.005
    }
    bias_filler {
      type: "constant"
      value: 1
    }
  }
}
layer {
  name: "relu7"
  type: "ReLU"
  bottom: "fc7_gtea"
  top: "fc7_gtea"
}
layer {
  name: "drop7"
  type: "Dropout"
  bottom: "fc7_gtea"
  top: "fc7_gtea"
  dropout_param {
    dropout_ratio: 0.5
  }
}
layer {
  name: "fc8_gtea"
  type: "InnerProduct"
  bottom: "fc7_gtea"
  top: "fc8_gtea"
  param {
    lr_mult: 1
    decay_mult: 1
  }
  param {
    lr_mult: 2
    decay_mult: 0
  }
  inner_product_param {
    num_output: 16
    weight_filler {
      type: "gaussian"
      std: 0.01
    }
    bias_filler {
      type: "constant"
      value: 0
    }
  }
}
layer {
  name: "loss"
  type: "SoftmaxWithLoss"
  bottom: "fc8_gtea"
  bottom: "label"
  top: "loss"
}
I1011 07:11:12.405529 15944 layer_factory.hpp:76] Creating layer data
I1011 07:11:12.405556 15944 net.cpp:110] Creating Layer data
I1011 07:11:12.405562 15944 net.cpp:433] data -> data
I1011 07:11:12.405572 15944 net.cpp:433] data -> label
I1011 07:11:12.405581 15944 data_transformer.cpp:23] Loading mean file from: imagenet_mean.binaryproto
I1011 07:11:12.957106 15944 image_data_layer.cpp:36] Opening file GAZE25_data/gaze_obj_train.txt
I1011 07:11:12.962668 15944 image_data_layer.cpp:46] Shuffling data
I1011 07:11:12.963629 15944 image_data_layer.cpp:51] A total of 12039 images.
I1011 07:11:12.965196 15944 image_data_layer.cpp:78] output data size: 128,3,224,224
I1011 07:11:13.085557 15944 net.cpp:155] Setting up data
I1011 07:11:13.085583 15944 net.cpp:163] Top shape: 128 3 224 224 (19267584)
I1011 07:11:13.085589 15944 net.cpp:163] Top shape: 128 (128)
I1011 07:11:13.085595 15944 layer_factory.hpp:76] Creating layer conv1
I1011 07:11:13.085611 15944 net.cpp:110] Creating Layer conv1
I1011 07:11:13.085615 15944 net.cpp:477] conv1 <- data
I1011 07:11:13.085623 15944 net.cpp:433] conv1 -> conv1
I1011 07:11:13.086869 15944 net.cpp:155] Setting up conv1
I1011 07:11:13.086884 15944 net.cpp:163] Top shape: 128 96 109 109 (145993728)
I1011 07:11:13.086896 15944 layer_factory.hpp:76] Creating layer relu1
I1011 07:11:13.086905 15944 net.cpp:110] Creating Layer relu1
I1011 07:11:13.086907 15944 net.cpp:477] relu1 <- conv1
I1011 07:11:13.086912 15944 net.cpp:419] relu1 -> conv1 (in-place)
I1011 07:11:13.086925 15944 net.cpp:155] Setting up relu1
I1011 07:11:13.086928 15944 net.cpp:163] Top shape: 128 96 109 109 (145993728)
I1011 07:11:13.086931 15944 layer_factory.hpp:76] Creating layer norm1
I1011 07:11:13.086937 15944 net.cpp:110] Creating Layer norm1
I1011 07:11:13.086941 15944 net.cpp:477] norm1 <- conv1
I1011 07:11:13.086944 15944 net.cpp:433] norm1 -> norm1
I1011 07:11:13.086951 15944 net.cpp:155] Setting up norm1
I1011 07:11:13.086954 15944 net.cpp:163] Top shape: 128 96 109 109 (145993728)
I1011 07:11:13.086957 15944 layer_factory.hpp:76] Creating layer pool1
I1011 07:11:13.086963 15944 net.cpp:110] Creating Layer pool1
I1011 07:11:13.086966 15944 net.cpp:477] pool1 <- norm1
I1011 07:11:13.086971 15944 net.cpp:433] pool1 -> pool1
I1011 07:11:13.086982 15944 net.cpp:155] Setting up pool1
I1011 07:11:13.086990 15944 net.cpp:163] Top shape: 128 96 54 54 (35831808)
I1011 07:11:13.086994 15944 layer_factory.hpp:76] Creating layer conv2
I1011 07:11:13.087002 15944 net.cpp:110] Creating Layer conv2
I1011 07:11:13.087003 15944 net.cpp:477] conv2 <- pool1
I1011 07:11:13.087008 15944 net.cpp:433] conv2 -> conv2
I1011 07:11:13.106739 15944 net.cpp:155] Setting up conv2
I1011 07:11:13.106760 15944 net.cpp:163] Top shape: 128 256 26 26 (22151168)
I1011 07:11:13.106773 15944 layer_factory.hpp:76] Creating layer relu2
I1011 07:11:13.106781 15944 net.cpp:110] Creating Layer relu2
I1011 07:11:13.106786 15944 net.cpp:477] relu2 <- conv2
I1011 07:11:13.106791 15944 net.cpp:419] relu2 -> conv2 (in-place)
I1011 07:11:13.106798 15944 net.cpp:155] Setting up relu2
I1011 07:11:13.106802 15944 net.cpp:163] Top shape: 128 256 26 26 (22151168)
I1011 07:11:13.106804 15944 layer_factory.hpp:76] Creating layer norm2
I1011 07:11:13.106811 15944 net.cpp:110] Creating Layer norm2
I1011 07:11:13.106812 15944 net.cpp:477] norm2 <- conv2
I1011 07:11:13.106817 15944 net.cpp:433] norm2 -> norm2
I1011 07:11:13.106823 15944 net.cpp:155] Setting up norm2
I1011 07:11:13.106827 15944 net.cpp:163] Top shape: 128 256 26 26 (22151168)
I1011 07:11:13.106829 15944 layer_factory.hpp:76] Creating layer pool2
I1011 07:11:13.106837 15944 net.cpp:110] Creating Layer pool2
I1011 07:11:13.106839 15944 net.cpp:477] pool2 <- norm2
I1011 07:11:13.106843 15944 net.cpp:433] pool2 -> pool2
I1011 07:11:13.106849 15944 net.cpp:155] Setting up pool2
I1011 07:11:13.106860 15944 net.cpp:163] Top shape: 128 256 13 13 (5537792)
I1011 07:11:13.106863 15944 layer_factory.hpp:76] Creating layer conv3
I1011 07:11:13.106870 15944 net.cpp:110] Creating Layer conv3
I1011 07:11:13.106873 15944 net.cpp:477] conv3 <- pool2
I1011 07:11:13.106878 15944 net.cpp:433] conv3 -> conv3
I1011 07:11:13.143035 15944 net.cpp:155] Setting up conv3
I1011 07:11:13.143062 15944 net.cpp:163] Top shape: 128 512 13 13 (11075584)
I1011 07:11:13.143076 15944 layer_factory.hpp:76] Creating layer relu3
I1011 07:11:13.143087 15944 net.cpp:110] Creating Layer relu3
I1011 07:11:13.143091 15944 net.cpp:477] relu3 <- conv3
I1011 07:11:13.143097 15944 net.cpp:419] relu3 -> conv3 (in-place)
I1011 07:11:13.143105 15944 net.cpp:155] Setting up relu3
I1011 07:11:13.143110 15944 net.cpp:163] Top shape: 128 512 13 13 (11075584)
I1011 07:11:13.143111 15944 layer_factory.hpp:76] Creating layer conv4
I1011 07:11:13.143120 15944 net.cpp:110] Creating Layer conv4
I1011 07:11:13.143122 15944 net.cpp:477] conv4 <- conv3
I1011 07:11:13.143126 15944 net.cpp:433] conv4 -> conv4
I1011 07:11:13.215368 15944 net.cpp:155] Setting up conv4
I1011 07:11:13.215394 15944 net.cpp:163] Top shape: 128 512 13 13 (11075584)
I1011 07:11:13.215404 15944 layer_factory.hpp:76] Creating layer relu4
I1011 07:11:13.215412 15944 net.cpp:110] Creating Layer relu4
I1011 07:11:13.215417 15944 net.cpp:477] relu4 <- conv4
I1011 07:11:13.215423 15944 net.cpp:419] relu4 -> conv4 (in-place)
I1011 07:11:13.215432 15944 net.cpp:155] Setting up relu4
I1011 07:11:13.215436 15944 net.cpp:163] Top shape: 128 512 13 13 (11075584)
I1011 07:11:13.215438 15944 layer_factory.hpp:76] Creating layer conv5
I1011 07:11:13.215445 15944 net.cpp:110] Creating Layer conv5
I1011 07:11:13.215448 15944 net.cpp:477] conv5 <- conv4
I1011 07:11:13.215453 15944 net.cpp:433] conv5 -> conv5
I1011 07:11:13.287953 15944 net.cpp:155] Setting up conv5
I1011 07:11:13.287979 15944 net.cpp:163] Top shape: 128 512 13 13 (11075584)
I1011 07:11:13.287996 15944 layer_factory.hpp:76] Creating layer relu5
I1011 07:11:13.288005 15944 net.cpp:110] Creating Layer relu5
I1011 07:11:13.288010 15944 net.cpp:477] relu5 <- conv5
I1011 07:11:13.288017 15944 net.cpp:419] relu5 -> conv5 (in-place)
I1011 07:11:13.288025 15944 net.cpp:155] Setting up relu5
I1011 07:11:13.288033 15944 net.cpp:163] Top shape: 128 512 13 13 (11075584)
I1011 07:11:13.288036 15944 layer_factory.hpp:76] Creating layer pool5
I1011 07:11:13.288041 15944 net.cpp:110] Creating Layer pool5
I1011 07:11:13.288044 15944 net.cpp:477] pool5 <- conv5
I1011 07:11:13.288049 15944 net.cpp:433] pool5 -> pool5
I1011 07:11:13.288058 15944 net.cpp:155] Setting up pool5
I1011 07:11:13.288061 15944 net.cpp:163] Top shape: 128 512 6 6 (2359296)
I1011 07:11:13.288064 15944 layer_factory.hpp:76] Creating layer fc6
I1011 07:11:13.288074 15944 net.cpp:110] Creating Layer fc6
I1011 07:11:13.288077 15944 net.cpp:477] fc6 <- pool5
I1011 07:11:13.288082 15944 net.cpp:433] fc6 -> fc6
I1011 07:11:15.597143 15944 net.cpp:155] Setting up fc6
I1011 07:11:15.597172 15944 net.cpp:163] Top shape: 128 4096 (524288)
I1011 07:11:15.597183 15944 layer_factory.hpp:76] Creating layer relu6
I1011 07:11:15.597194 15944 net.cpp:110] Creating Layer relu6
I1011 07:11:15.597198 15944 net.cpp:477] relu6 <- fc6
I1011 07:11:15.597204 15944 net.cpp:419] relu6 -> fc6 (in-place)
I1011 07:11:15.597213 15944 net.cpp:155] Setting up relu6
I1011 07:11:15.597218 15944 net.cpp:163] Top shape: 128 4096 (524288)
I1011 07:11:15.597220 15944 layer_factory.hpp:76] Creating layer drop6
I1011 07:11:15.597228 15944 net.cpp:110] Creating Layer drop6
I1011 07:11:15.597230 15944 net.cpp:477] drop6 <- fc6
I1011 07:11:15.597234 15944 net.cpp:419] drop6 -> fc6 (in-place)
I1011 07:11:15.597240 15944 net.cpp:155] Setting up drop6
I1011 07:11:15.597244 15944 net.cpp:163] Top shape: 128 4096 (524288)
I1011 07:11:15.597247 15944 layer_factory.hpp:76] Creating layer fc7_gtea
I1011 07:11:15.597254 15944 net.cpp:110] Creating Layer fc7_gtea
I1011 07:11:15.597256 15944 net.cpp:477] fc7_gtea <- fc6
I1011 07:11:15.597261 15944 net.cpp:433] fc7_gtea -> fc7_gtea
I1011 07:11:15.853497 15944 net.cpp:155] Setting up fc7_gtea
I1011 07:11:15.853525 15944 net.cpp:163] Top shape: 128 2048 (262144)
I1011 07:11:15.853535 15944 layer_factory.hpp:76] Creating layer relu7
I1011 07:11:15.853545 15944 net.cpp:110] Creating Layer relu7
I1011 07:11:15.853550 15944 net.cpp:477] relu7 <- fc7_gtea
I1011 07:11:15.853557 15944 net.cpp:419] relu7 -> fc7_gtea (in-place)
I1011 07:11:15.853565 15944 net.cpp:155] Setting up relu7
I1011 07:11:15.853574 15944 net.cpp:163] Top shape: 128 2048 (262144)
I1011 07:11:15.853577 15944 layer_factory.hpp:76] Creating layer drop7
I1011 07:11:15.853584 15944 net.cpp:110] Creating Layer drop7
I1011 07:11:15.853586 15944 net.cpp:477] drop7 <- fc7_gtea
I1011 07:11:15.853590 15944 net.cpp:419] drop7 -> fc7_gtea (in-place)
I1011 07:11:15.853595 15944 net.cpp:155] Setting up drop7
I1011 07:11:15.853600 15944 net.cpp:163] Top shape: 128 2048 (262144)
I1011 07:11:15.853602 15944 layer_factory.hpp:76] Creating layer fc8_gtea
I1011 07:11:15.853608 15944 net.cpp:110] Creating Layer fc8_gtea
I1011 07:11:15.853611 15944 net.cpp:477] fc8_gtea <- fc7_gtea
I1011 07:11:15.853615 15944 net.cpp:433] fc8_gtea -> fc8_gtea
I1011 07:11:15.855381 15944 net.cpp:155] Setting up fc8_gtea
I1011 07:11:15.855396 15944 net.cpp:163] Top shape: 128 16 (2048)
I1011 07:11:15.855402 15944 layer_factory.hpp:76] Creating layer loss
I1011 07:11:15.855409 15944 net.cpp:110] Creating Layer loss
I1011 07:11:15.855412 15944 net.cpp:477] loss <- fc8_gtea
I1011 07:11:15.855417 15944 net.cpp:477] loss <- label
I1011 07:11:15.855422 15944 net.cpp:433] loss -> loss
I1011 07:11:15.855429 15944 layer_factory.hpp:76] Creating layer loss
I1011 07:11:15.855507 15944 net.cpp:155] Setting up loss
…
