…
net: ".verb_train_gaze25.prototxt"
iter_size: 1
I1011 05:16:41.799713 11982 solver.cpp:96] Creating training net from net file: .verb_train_gaze25.prototxt
I1011 05:16:41.800478 11982 net.cpp:50] Initializing net from parameters: 
name: "ActionNet"
state {
  phase: TRAIN
}
layer {
  name: "data"
  type: "FlowData"
  top: "data"
  top: "label"
  include {
    phase: TRAIN
  }
  transform_param {
    mirror: false
    crop_size: 224
  }
  flow_data_param {
    source: "GAZE25_data/gaze_verb_train.txt"
    batch_size: 180
    show_level: 0
    num_stack_frames: 10
    mean: 128
  }
}
layer {
  name: "conv1"
  type: "Convolution"
  bottom: "data"
  top: "conv1"
  param {
    lr_mult: 1
    decay_mult: 1
  }
  param {
    lr_mult: 2
    decay_mult: 0
  }
  convolution_param {
    num_output: 96
    kernel_size: 7
    stride: 2
    weight_filler {
      type: "gaussian"
      std: 0.01
    }
    bias_filler {
      type: "constant"
      value: 0
    }
  }
}
layer {
  name: "relu1"
  type: "ReLU"
  bottom: "conv1"
  top: "conv1"
}
layer {
  name: "norm1"
  type: "LRN"
  bottom: "conv1"
  top: "norm1"
  lrn_param {
    local_size: 5
    alpha: 0.0005
    beta: 0.75
    k: 2
  }
}
layer {
  name: "pool1"
  type: "Pooling"
  bottom: "norm1"
  top: "pool1"
  pooling_param {
    pool: MAX
    kernel_size: 3
    stride: 2
  }
}
layer {
  name: "conv2"
  type: "Convolution"
  bottom: "pool1"
  top: "conv2"
  param {
    lr_mult: 1
    decay_mult: 1
  }
  param {
    lr_mult: 2
    decay_mult: 0
  }
  convolution_param {
    num_output: 256
    pad: 1
    kernel_size: 5
    stride: 2
    weight_filler {
      type: "gaussian"
      std: 0.01
    }
    bias_filler {
      type: "constant"
      value: 1
    }
  }
}
layer {
  name: "relu2"
  type: "ReLU"
  bottom: "conv2"
  top: "conv2"
}
layer {
  name: "norm2"
  type: "LRN"
  bottom: "conv2"
  top: "norm2"
  lrn_param {
    local_size: 5
    alpha: 0.0005
    beta: 0.75
    k: 2
  }
}
layer {
  name: "pool2"
  type: "Pooling"
  bottom: "norm2"
  top: "pool2"
  pooling_param {
    pool: MAX
    kernel_size: 3
    stride: 2
  }
}
layer {
  name: "conv3"
  type: "Convolution"
  bottom: "pool2"
  top: "conv3"
  param {
    lr_mult: 1
    decay_mult: 1
  }
  param {
    lr_mult: 2
    decay_mult: 0
  }
  convolution_param {
    num_output: 512
    pad: 1
    kernel_size: 3
    weight_filler {
      type: "gaussian"
      std: 0.01
    }
    bias_filler {
      type: "constant"
      value: 0
    }
  }
}
layer {
  name: "relu3"
  type: "ReLU"
  bottom: "conv3"
  top: "conv3"
}
layer {
  name: "conv4"
  type: "Convolution"
  bottom: "conv3"
  top: "conv4"
  param {
    lr_mult: 1
    decay_mult: 1
  }
  param {
    lr_mult: 2
    decay_mult: 0
  }
  convolution_param {
    num_output: 512
    pad: 1
    kernel_size: 3
    weight_filler {
      type: "gaussian"
      std: 0.01
    }
    bias_filler {
      type: "constant"
      value: 1
    }
  }
}
layer {
  name: "relu4"
  type: "ReLU"
  bottom: "conv4"
  top: "conv4"
}
layer {
  name: "conv5"
  type: "Convolution"
  bottom: "conv4"
  top: "conv5"
  param {
    lr_mult: 1
    decay_mult: 1
  }
  param {
    lr_mult: 2
    decay_mult: 0
  }
  convolution_param {
    num_output: 512
    pad: 1
    kernel_size: 3
    weight_filler {
      type: "gaussian"
      std: 0.01
    }
    bias_filler {
      type: "constant"
      value: 1
    }
  }
}
layer {
  name: "relu5"
  type: "ReLU"
  bottom: "conv5"
  top: "conv5"
}
layer {
  name: "pool5"
  type: "Pooling"
  bottom: "conv5"
  top: "pool5"
  pooling_param {
    pool: MAX
    kernel_size: 3
    stride: 2
  }
}
layer {
  name: "fc6"
  type: "InnerProduct"
  bottom: "pool5"
  top: "fc6"
  param {
    lr_mult: 1
    decay_mult: 1
  }
  param {
    lr_mult: 2
    decay_mult: 0
  }
  inner_product_param {
    num_output: 4096
    weight_filler {
      type: "gaussian"
      std: 0.005
    }
    bias_filler {
      type: "constant"
      value: 1
    }
  }
}
layer {
  name: "relu6"
  type: "ReLU"
  bottom: "fc6"
  top: "fc6"
}
layer {
  name: "drop6"
  type: "Dropout"
  bottom: "fc6"
  top: "fc6"
  dropout_param {
    dropout_ratio: 0.9
  }
}
layer {
  name: "fc7"
  type: "InnerProduct"
  bottom: "fc6"
  top: "fc7"
  param {
    lr_mult: 1
    decay_mult: 1
  }
  param {
    lr_mult: 2
    decay_mult: 0
  }
  inner_product_param {
    num_output: 2048
    weight_filler {
      type: "gaussian"
      std: 0.005
    }
    bias_filler {
      type: "constant"
      value: 1
    }
  }
}
layer {
  name: "relu7"
  type: "ReLU"
  bottom: "fc7"
  top: "fc7"
}
layer {
  name: "drop7"
  type: "Dropout"
  bottom: "fc7"
  top: "fc7"
  dropout_param {
    dropout_ratio: 0.8
  }
}
layer {
  name: "fc8_gtea"
  type: "InnerProduct"
  bottom: "fc7"
  top: "fc8_gtea"
  param {
    name: "fc8_w"
    lr_mult: 1
    decay_mult: 1
  }
  param {
    name: "fc8_b"
    lr_mult: 2
    decay_mult: 0
  }
  inner_product_param {
    num_output: 9
    weight_filler {
      type: "gaussian"
      std: 0.01
    }
    bias_filler {
      type: "constant"
      value: 0
    }
  }
}
layer {
  name: "loss"
  type: "SoftmaxWithLoss"
  bottom: "fc8_gtea"
  bottom: "label"
  top: "loss"
}
I1011 05:16:41.800612 11982 layer_factory.hpp:76] Creating layer data
I1011 05:16:41.800649 11982 net.cpp:110] Creating Layer data
I1011 05:16:41.800657 11982 net.cpp:433] data -> data
I1011 05:16:41.800674 11982 net.cpp:433] data -> label
I1011 05:16:41.801229 11982 flow_data_layer.cpp:33] Opening file GAZE25_data/gaze_verb_train.txt
I1011 05:16:41.801362 11982 flow_data_layer.cpp:42] A total of 158 videos.
I1011 05:16:42.050480 11982 flow_data_layer.cpp:69] Max instance count: 16
I1011 05:16:42.050503 11982 flow_data_layer.cpp:70] Min instance count: 0
I1011 05:16:42.085654 11982 flow_data_layer.cpp:101] Total number of stacked blobs: 10316
I1011 05:16:42.085687 11982 flow_data_layer.cpp:144] shuffle images
I1011 05:16:42.102444 11982 flow_data_layer.cpp:121] output data size: 180,20,224,224
I1011 05:16:42.102478 11982 flow_data_layer.cpp:130] label size: 180,1,1,1
I1011 05:16:44.507961 11982 net.cpp:155] Setting up data
I1011 05:16:44.507997 11982 net.cpp:163] Top shape: 180 20 224 224 (180633600)
I1011 05:16:44.508005 11982 net.cpp:163] Top shape: 180 (180)
I1011 05:16:44.508015 11982 layer_factory.hpp:76] Creating layer conv1
I1011 05:16:44.508035 11982 net.cpp:110] Creating Layer conv1
I1011 05:16:44.508043 11982 net.cpp:477] conv1 <- data
I1011 05:16:44.508054 11982 net.cpp:433] conv1 -> conv1
I1011 05:16:44.569982 11982 net.cpp:155] Setting up conv1
I1011 05:16:44.570077 11982 net.cpp:163] Top shape: 180 96 109 109 (205303680)
I1011 05:16:44.570121 11982 layer_factory.hpp:76] Creating layer relu1
I1011 05:16:44.570153 11982 net.cpp:110] Creating Layer relu1
I1011 05:16:44.570176 11982 net.cpp:477] relu1 <- conv1
I1011 05:16:44.570204 11982 net.cpp:419] relu1 -> conv1 (in-place)
I1011 05:16:44.570247 11982 net.cpp:155] Setting up relu1
I1011 05:16:44.570281 11982 net.cpp:163] Top shape: 180 96 109 109 (205303680)
I1011 05:16:44.570302 11982 layer_factory.hpp:76] Creating layer norm1
I1011 05:16:44.570333 11982 net.cpp:110] Creating Layer norm1
I1011 05:16:44.570358 11982 net.cpp:477] norm1 <- conv1
I1011 05:16:44.570381 11982 net.cpp:433] norm1 -> norm1
I1011 05:16:44.570410 11982 net.cpp:155] Setting up norm1
I1011 05:16:44.570433 11982 net.cpp:163] Top shape: 180 96 109 109 (205303680)
I1011 05:16:44.570454 11982 layer_factory.hpp:76] Creating layer pool1
I1011 05:16:44.570480 11982 net.cpp:110] Creating Layer pool1
I1011 05:16:44.570500 11982 net.cpp:477] pool1 <- norm1
I1011 05:16:44.570523 11982 net.cpp:433] pool1 -> pool1
I1011 05:16:44.570557 11982 net.cpp:155] Setting up pool1
I1011 05:16:44.570587 11982 net.cpp:163] Top shape: 180 96 54 54 (50388480)
I1011 05:16:44.570607 11982 layer_factory.hpp:76] Creating layer conv2
I1011 05:16:44.570636 11982 net.cpp:110] Creating Layer conv2
I1011 05:16:44.570668 11982 net.cpp:477] conv2 <- pool1
I1011 05:16:44.570693 11982 net.cpp:433] conv2 -> conv2
I1011 05:16:44.622115 11982 net.cpp:155] Setting up conv2
I1011 05:16:44.622208 11982 net.cpp:163] Top shape: 180 256 26 26 (31150080)
I1011 05:16:44.622251 11982 layer_factory.hpp:76] Creating layer relu2
I1011 05:16:44.622284 11982 net.cpp:110] Creating Layer relu2
I1011 05:16:44.622308 11982 net.cpp:477] relu2 <- conv2
I1011 05:16:44.622331 11982 net.cpp:419] relu2 -> conv2 (in-place)
I1011 05:16:44.622360 11982 net.cpp:155] Setting up relu2
I1011 05:16:44.622385 11982 net.cpp:163] Top shape: 180 256 26 26 (31150080)
I1011 05:16:44.622406 11982 layer_factory.hpp:76] Creating layer norm2
I1011 05:16:44.622429 11982 net.cpp:110] Creating Layer norm2
I1011 05:16:44.622449 11982 net.cpp:477] norm2 <- conv2
I1011 05:16:44.622473 11982 net.cpp:433] norm2 -> norm2
I1011 05:16:44.622499 11982 net.cpp:155] Setting up norm2
I1011 05:16:44.622532 11982 net.cpp:163] Top shape: 180 256 26 26 (31150080)
I1011 05:16:44.622553 11982 layer_factory.hpp:76] Creating layer pool2
I1011 05:16:44.622581 11982 net.cpp:110] Creating Layer pool2
I1011 05:16:44.622601 11982 net.cpp:477] pool2 <- norm2
I1011 05:16:44.622623 11982 net.cpp:433] pool2 -> pool2
I1011 05:16:44.622653 11982 net.cpp:155] Setting up pool2
I1011 05:16:44.622684 11982 net.cpp:163] Top shape: 180 256 13 13 (7787520)
I1011 05:16:44.622704 11982 layer_factory.hpp:76] Creating layer conv3
I1011 05:16:44.622731 11982 net.cpp:110] Creating Layer conv3
I1011 05:16:44.622767 11982 net.cpp:477] conv3 <- pool2
I1011 05:16:44.622791 11982 net.cpp:433] conv3 -> conv3
I1011 05:16:44.685448 11982 net.cpp:155] Setting up conv3
I1011 05:16:44.685544 11982 net.cpp:163] Top shape: 180 512 13 13 (15575040)
I1011 05:16:44.685585 11982 layer_factory.hpp:76] Creating layer relu3
I1011 05:16:44.685624 11982 net.cpp:110] Creating Layer relu3
I1011 05:16:44.685652 11982 net.cpp:477] relu3 <- conv3
I1011 05:16:44.685678 11982 net.cpp:419] relu3 -> conv3 (in-place)
I1011 05:16:44.685706 11982 net.cpp:155] Setting up relu3
I1011 05:16:44.685730 11982 net.cpp:163] Top shape: 180 512 13 13 (15575040)
I1011 05:16:44.685751 11982 layer_factory.hpp:76] Creating layer conv4
I1011 05:16:44.685777 11982 net.cpp:110] Creating Layer conv4
I1011 05:16:44.685801 11982 net.cpp:477] conv4 <- conv3
I1011 05:16:44.685824 11982 net.cpp:433] conv4 -> conv4
I1011 05:16:44.813611 11982 net.cpp:155] Setting up conv4
I1011 05:16:44.813710 11982 net.cpp:163] Top shape: 180 512 13 13 (15575040)
I1011 05:16:44.813747 11982 layer_factory.hpp:76] Creating layer relu4
I1011 05:16:44.813779 11982 net.cpp:110] Creating Layer relu4
I1011 05:16:44.813802 11982 net.cpp:477] relu4 <- conv4
I1011 05:16:44.813827 11982 net.cpp:419] relu4 -> conv4 (in-place)
I1011 05:16:44.813863 11982 net.cpp:155] Setting up relu4
I1011 05:16:44.813886 11982 net.cpp:163] Top shape: 180 512 13 13 (15575040)
I1011 05:16:44.813907 11982 layer_factory.hpp:76] Creating layer conv5
I1011 05:16:44.813935 11982 net.cpp:110] Creating Layer conv5
I1011 05:16:44.813957 11982 net.cpp:477] conv5 <- conv4
I1011 05:16:44.813982 11982 net.cpp:433] conv5 -> conv5
I1011 05:16:44.938930 11982 net.cpp:155] Setting up conv5
I1011 05:16:44.939023 11982 net.cpp:163] Top shape: 180 512 13 13 (15575040)
I1011 05:16:44.939065 11982 layer_factory.hpp:76] Creating layer relu5
I1011 05:16:44.939095 11982 net.cpp:110] Creating Layer relu5
I1011 05:16:44.939119 11982 net.cpp:477] relu5 <- conv5
I1011 05:16:44.939148 11982 net.cpp:419] relu5 -> conv5 (in-place)
I1011 05:16:44.939178 11982 net.cpp:155] Setting up relu5
I1011 05:16:44.939203 11982 net.cpp:163] Top shape: 180 512 13 13 (15575040)
I1011 05:16:44.939224 11982 layer_factory.hpp:76] Creating layer pool5
I1011 05:16:44.939251 11982 net.cpp:110] Creating Layer pool5
I1011 05:16:44.939272 11982 net.cpp:477] pool5 <- conv5
I1011 05:16:44.939296 11982 net.cpp:433] pool5 -> pool5
I1011 05:16:44.939326 11982 net.cpp:155] Setting up pool5
I1011 05:16:44.939350 11982 net.cpp:163] Top shape: 180 512 6 6 (3317760)
I1011 05:16:44.939383 11982 layer_factory.hpp:76] Creating layer fc6
I1011 05:16:44.939415 11982 net.cpp:110] Creating Layer fc6
I1011 05:16:44.939437 11982 net.cpp:477] fc6 <- pool5
I1011 05:16:44.939476 11982 net.cpp:433] fc6 -> fc6
I1011 05:16:47.330834 11982 net.cpp:155] Setting up fc6
I1011 05:16:47.330864 11982 net.cpp:163] Top shape: 180 4096 (737280)
I1011 05:16:47.330876 11982 layer_factory.hpp:76] Creating layer relu6
I1011 05:16:47.330889 11982 net.cpp:110] Creating Layer relu6
I1011 05:16:47.330894 11982 net.cpp:477] relu6 <- fc6
I1011 05:16:47.330900 11982 net.cpp:419] relu6 -> fc6 (in-place)
I1011 05:16:47.330910 11982 net.cpp:155] Setting up relu6
I1011 05:16:47.330914 11982 net.cpp:163] Top shape: 180 4096 (737280)
I1011 05:16:47.330917 11982 layer_factory.hpp:76] Creating layer drop6
I1011 05:16:47.330926 11982 net.cpp:110] Creating Layer drop6
I1011 05:16:47.330932 11982 net.cpp:477] drop6 <- fc6
I1011 05:16:47.330937 11982 net.cpp:419] drop6 -> fc6 (in-place)
I1011 05:16:47.330945 11982 net.cpp:155] Setting up drop6
I1011 05:16:47.330948 11982 net.cpp:163] Top shape: 180 4096 (737280)
I1011 05:16:47.330951 11982 layer_factory.hpp:76] Creating layer fc7
I1011 05:16:47.330958 11982 net.cpp:110] Creating Layer fc7
I1011 05:16:47.330965 11982 net.cpp:477] fc7 <- fc6
I1011 05:16:47.330972 11982 net.cpp:433] fc7 -> fc7
I1011 05:16:47.588976 11982 net.cpp:155] Setting up fc7
I1011 05:16:47.589006 11982 net.cpp:163] Top shape: 180 2048 (368640)
I1011 05:16:47.589017 11982 layer_factory.hpp:76] Creating layer relu7
I1011 05:16:47.589035 11982 net.cpp:110] Creating Layer relu7
I1011 05:16:47.589040 11982 net.cpp:477] relu7 <- fc7
I1011 05:16:47.589047 11982 net.cpp:419] relu7 -> fc7 (in-place)
I1011 05:16:47.589056 11982 net.cpp:155] Setting up relu7
I1011 05:16:47.589061 11982 net.cpp:163] Top shape: 180 2048 (368640)
I1011 05:16:47.589063 11982 layer_factory.hpp:76] Creating layer drop7
I1011 05:16:47.589071 11982 net.cpp:110] Creating Layer drop7
I1011 05:16:47.589074 11982 net.cpp:477] drop7 <- fc7
I1011 05:16:47.589078 11982 net.cpp:419] drop7 -> fc7 (in-place)
I1011 05:16:47.589084 11982 net.cpp:155] Setting up drop7
I1011 05:16:47.589088 11982 net.cpp:163] Top shape: 180 2048 (368640)
I1011 05:16:47.589092 11982 layer_factory.hpp:76] Creating layer fc8_gtea
I1011 05:16:47.589099 11982 net.cpp:110] Creating Layer fc8_gtea
I1011 05:16:47.589107 11982 net.cpp:477] fc8_gtea <- fc7
I1011 05:16:47.589113 11982 net.cpp:433] fc8_gtea -> fc8_gtea
I1011 05:16:47.590554 11982 net.cpp:155] Setting up fc8_gtea
I1011 05:16:47.590570 11982 net.cpp:163] Top shape: 180 9 (1620)
I1011 05:16:47.590577 11982 layer_factory.hpp:76] Creating layer loss
I1011 05:16:47.590584 11982 net.cpp:110] Creating Layer loss
I1011 05:16:47.590589 11982 net.cpp:477] loss <- fc8_gtea
I1011 05:16:47.590594 11982 net.cpp:477] loss <- label
I1011 05:16:47.590598 11982 net.cpp:433] loss -> loss
I1011 05:16:47.590606 11982 layer_factory.hpp:76] Creating layer loss
I1011 05:16:47.590694 11982 net.cpp:155] Setting up loss
…
