…
net: ".verb_train.prototxt"
iter_size: 1
I1009 23:35:15.152246  6033 solver.cpp:96] Creating training net from net file: .verb_train.prototxt
I1009 23:35:15.152899  6033 net.cpp:50] Initializing net from parameters: 
name: "ActionNet"
state {
  phase: TRAIN
}
layer {
  name: "data"
  type: "FlowData"
  top: "data"
  top: "label"
  include {
    phase: TRAIN
  }
  transform_param {
    mirror: false
    crop_size: 224
  }
  flow_data_param {
    source: "GAZE_data/gaze_verb_train.txt"
    batch_size: 180
    show_level: 0
    num_stack_frames: 10
    mean: 128
  }
}
layer {
  name: "conv1"
  type: "Convolution"
  bottom: "data"
  top: "conv1"
  param {
    lr_mult: 1
    decay_mult: 1
  }
  param {
    lr_mult: 2
    decay_mult: 0
  }
  convolution_param {
    num_output: 96
    kernel_size: 7
    stride: 2
    weight_filler {
      type: "gaussian"
      std: 0.01
    }
    bias_filler {
      type: "constant"
      value: 0
    }
  }
}
layer {
  name: "relu1"
  type: "ReLU"
  bottom: "conv1"
  top: "conv1"
}
layer {
  name: "norm1"
  type: "LRN"
  bottom: "conv1"
  top: "norm1"
  lrn_param {
    local_size: 5
    alpha: 0.0005
    beta: 0.75
    k: 2
  }
}
layer {
  name: "pool1"
  type: "Pooling"
  bottom: "norm1"
  top: "pool1"
  pooling_param {
    pool: MAX
    kernel_size: 3
    stride: 2
  }
}
layer {
  name: "conv2"
  type: "Convolution"
  bottom: "pool1"
  top: "conv2"
  param {
    lr_mult: 1
    decay_mult: 1
  }
  param {
    lr_mult: 2
    decay_mult: 0
  }
  convolution_param {
    num_output: 256
    pad: 1
    kernel_size: 5
    stride: 2
    weight_filler {
      type: "gaussian"
      std: 0.01
    }
    bias_filler {
      type: "constant"
      value: 1
    }
  }
}
layer {
  name: "relu2"
  type: "ReLU"
  bottom: "conv2"
  top: "conv2"
}
layer {
  name: "norm2"
  type: "LRN"
  bottom: "conv2"
  top: "norm2"
  lrn_param {
    local_size: 5
    alpha: 0.0005
    beta: 0.75
    k: 2
  }
}
layer {
  name: "pool2"
  type: "Pooling"
  bottom: "norm2"
  top: "pool2"
  pooling_param {
    pool: MAX
    kernel_size: 3
    stride: 2
  }
}
layer {
  name: "conv3"
  type: "Convolution"
  bottom: "pool2"
  top: "conv3"
  param {
    lr_mult: 1
    decay_mult: 1
  }
  param {
    lr_mult: 2
    decay_mult: 0
  }
  convolution_param {
    num_output: 512
    pad: 1
    kernel_size: 3
    weight_filler {
      type: "gaussian"
      std: 0.01
    }
    bias_filler {
      type: "constant"
      value: 0
    }
  }
}
layer {
  name: "relu3"
  type: "ReLU"
  bottom: "conv3"
  top: "conv3"
}
layer {
  name: "conv4"
  type: "Convolution"
  bottom: "conv3"
  top: "conv4"
  param {
    lr_mult: 1
    decay_mult: 1
  }
  param {
    lr_mult: 2
    decay_mult: 0
  }
  convolution_param {
    num_output: 512
    pad: 1
    kernel_size: 3
    weight_filler {
      type: "gaussian"
      std: 0.01
    }
    bias_filler {
      type: "constant"
      value: 1
    }
  }
}
layer {
  name: "relu4"
  type: "ReLU"
  bottom: "conv4"
  top: "conv4"
}
layer {
  name: "conv5"
  type: "Convolution"
  bottom: "conv4"
  top: "conv5"
  param {
    lr_mult: 1
    decay_mult: 1
  }
  param {
    lr_mult: 2
    decay_mult: 0
  }
  convolution_param {
    num_output: 512
    pad: 1
    kernel_size: 3
    weight_filler {
      type: "gaussian"
      std: 0.01
    }
    bias_filler {
      type: "constant"
      value: 1
    }
  }
}
layer {
  name: "relu5"
  type: "ReLU"
  bottom: "conv5"
  top: "conv5"
}
layer {
  name: "pool5"
  type: "Pooling"
  bottom: "conv5"
  top: "pool5"
  pooling_param {
    pool: MAX
    kernel_size: 3
    stride: 2
  }
}
layer {
  name: "fc6"
  type: "InnerProduct"
  bottom: "pool5"
  top: "fc6"
  param {
    lr_mult: 1
    decay_mult: 1
  }
  param {
    lr_mult: 2
    decay_mult: 0
  }
  inner_product_param {
    num_output: 4096
    weight_filler {
      type: "gaussian"
      std: 0.005
    }
    bias_filler {
      type: "constant"
      value: 1
    }
  }
}
layer {
  name: "relu6"
  type: "ReLU"
  bottom: "fc6"
  top: "fc6"
}
layer {
  name: "drop6"
  type: "Dropout"
  bottom: "fc6"
  top: "fc6"
  dropout_param {
    dropout_ratio: 0.9
  }
}
layer {
  name: "fc7"
  type: "InnerProduct"
  bottom: "fc6"
  top: "fc7"
  param {
    lr_mult: 1
    decay_mult: 1
  }
  param {
    lr_mult: 2
    decay_mult: 0
  }
  inner_product_param {
    num_output: 2048
    weight_filler {
      type: "gaussian"
      std: 0.005
    }
    bias_filler {
      type: "constant"
      value: 1
    }
  }
}
layer {
  name: "relu7"
  type: "ReLU"
  bottom: "fc7"
  top: "fc7"
}
layer {
  name: "drop7"
  type: "Dropout"
  bottom: "fc7"
  top: "fc7"
  dropout_param {
    dropout_ratio: 0.8
  }
}
layer {
  name: "fc8_gtea"
  type: "InnerProduct"
  bottom: "fc7"
  top: "fc8_gtea"
  param {
    name: "fc8_w"
    lr_mult: 1
    decay_mult: 1
  }
  param {
    name: "fc8_b"
    lr_mult: 2
    decay_mult: 0
  }
  inner_product_param {
    num_output: 10
    weight_filler {
      type: "gaussian"
      std: 0.01
    }
    bias_filler {
      type: "constant"
      value: 0
    }
  }
}
layer {
  name: "loss"
  type: "SoftmaxWithLoss"
  bottom: "fc8_gtea"
  bottom: "label"
  top: "loss"
}
I1009 23:35:15.152984  6033 layer_factory.hpp:76] Creating layer data
I1009 23:35:15.153012  6033 net.cpp:110] Creating Layer data
I1009 23:35:15.153017  6033 net.cpp:433] data -> data
I1009 23:35:15.153025  6033 net.cpp:433] data -> label
I1009 23:35:15.153414  6033 flow_data_layer.cpp:33] Opening file GAZE_data/gaze_verb_train.txt
I1009 23:35:15.159075  6033 flow_data_layer.cpp:42] A total of 226 videos.
I1009 23:35:15.965445  6033 flow_data_layer.cpp:69] Max instance count: 20
I1009 23:35:15.965466  6033 flow_data_layer.cpp:70] Min instance count: 0
I1009 23:35:16.002290  6033 flow_data_layer.cpp:101] Total number of stacked blobs: 13101
I1009 23:35:16.002305  6033 flow_data_layer.cpp:144] shuffle images
I1009 23:35:16.028998  6033 flow_data_layer.cpp:121] output data size: 180,20,224,224
I1009 23:35:16.029011  6033 flow_data_layer.cpp:130] label size: 180,1,1,1
I1009 23:35:17.544459  6033 net.cpp:155] Setting up data
I1009 23:35:17.544486  6033 net.cpp:163] Top shape: 180 20 224 224 (180633600)
I1009 23:35:17.544491  6033 net.cpp:163] Top shape: 180 (180)
I1009 23:35:17.544497  6033 layer_factory.hpp:76] Creating layer conv1
I1009 23:35:17.544512  6033 net.cpp:110] Creating Layer conv1
I1009 23:35:17.544517  6033 net.cpp:477] conv1 <- data
I1009 23:35:17.544523  6033 net.cpp:433] conv1 -> conv1
I1009 23:35:17.548507  6033 net.cpp:155] Setting up conv1
I1009 23:35:17.548521  6033 net.cpp:163] Top shape: 180 96 109 109 (205303680)
I1009 23:35:17.548534  6033 layer_factory.hpp:76] Creating layer relu1
I1009 23:35:17.548542  6033 net.cpp:110] Creating Layer relu1
I1009 23:35:17.548547  6033 net.cpp:477] relu1 <- conv1
I1009 23:35:17.548552  6033 net.cpp:419] relu1 -> conv1 (in-place)
I1009 23:35:17.548564  6033 net.cpp:155] Setting up relu1
I1009 23:35:17.548568  6033 net.cpp:163] Top shape: 180 96 109 109 (205303680)
I1009 23:35:17.548571  6033 layer_factory.hpp:76] Creating layer norm1
I1009 23:35:17.548581  6033 net.cpp:110] Creating Layer norm1
I1009 23:35:17.548583  6033 net.cpp:477] norm1 <- conv1
I1009 23:35:17.548588  6033 net.cpp:433] norm1 -> norm1
I1009 23:35:17.548594  6033 net.cpp:155] Setting up norm1
I1009 23:35:17.548599  6033 net.cpp:163] Top shape: 180 96 109 109 (205303680)
I1009 23:35:17.548601  6033 layer_factory.hpp:76] Creating layer pool1
I1009 23:35:17.548611  6033 net.cpp:110] Creating Layer pool1
I1009 23:35:17.548614  6033 net.cpp:477] pool1 <- norm1
I1009 23:35:17.548619  6033 net.cpp:433] pool1 -> pool1
I1009 23:35:17.548630  6033 net.cpp:155] Setting up pool1
I1009 23:35:17.548635  6033 net.cpp:163] Top shape: 180 96 54 54 (50388480)
I1009 23:35:17.548638  6033 layer_factory.hpp:76] Creating layer conv2
I1009 23:35:17.548645  6033 net.cpp:110] Creating Layer conv2
I1009 23:35:17.548647  6033 net.cpp:477] conv2 <- pool1
I1009 23:35:17.548651  6033 net.cpp:433] conv2 -> conv2
I1009 23:35:17.642843  6033 net.cpp:155] Setting up conv2
I1009 23:35:17.642868  6033 net.cpp:163] Top shape: 180 256 26 26 (31150080)
I1009 23:35:17.642884  6033 layer_factory.hpp:76] Creating layer relu2
I1009 23:35:17.642895  6033 net.cpp:110] Creating Layer relu2
I1009 23:35:17.642901  6033 net.cpp:477] relu2 <- conv2
I1009 23:35:17.642910  6033 net.cpp:419] relu2 -> conv2 (in-place)
I1009 23:35:17.642920  6033 net.cpp:155] Setting up relu2
I1009 23:35:17.642926  6033 net.cpp:163] Top shape: 180 256 26 26 (31150080)
I1009 23:35:17.642931  6033 layer_factory.hpp:76] Creating layer norm2
I1009 23:35:17.642940  6033 net.cpp:110] Creating Layer norm2
I1009 23:35:17.642945  6033 net.cpp:477] norm2 <- conv2
I1009 23:35:17.642951  6033 net.cpp:433] norm2 -> norm2
I1009 23:35:17.642961  6033 net.cpp:155] Setting up norm2
I1009 23:35:17.642967  6033 net.cpp:163] Top shape: 180 256 26 26 (31150080)
I1009 23:35:17.642972  6033 layer_factory.hpp:76] Creating layer pool2
I1009 23:35:17.642982  6033 net.cpp:110] Creating Layer pool2
I1009 23:35:17.642987  6033 net.cpp:477] pool2 <- norm2
I1009 23:35:17.642992  6033 net.cpp:433] pool2 -> pool2
I1009 23:35:17.643003  6033 net.cpp:155] Setting up pool2
I1009 23:35:17.643009  6033 net.cpp:163] Top shape: 180 256 13 13 (7787520)
I1009 23:35:17.643014  6033 layer_factory.hpp:76] Creating layer conv3
I1009 23:35:17.643023  6033 net.cpp:110] Creating Layer conv3
I1009 23:35:17.643028  6033 net.cpp:477] conv3 <- pool2
I1009 23:35:17.643035  6033 net.cpp:433] conv3 -> conv3
I1009 23:35:17.698984  6033 net.cpp:155] Setting up conv3
I1009 23:35:17.699005  6033 net.cpp:163] Top shape: 180 512 13 13 (15575040)
I1009 23:35:17.699018  6033 layer_factory.hpp:76] Creating layer relu3
I1009 23:35:17.699028  6033 net.cpp:110] Creating Layer relu3
I1009 23:35:17.699033  6033 net.cpp:477] relu3 <- conv3
I1009 23:35:17.699039  6033 net.cpp:419] relu3 -> conv3 (in-place)
I1009 23:35:17.699048  6033 net.cpp:155] Setting up relu3
I1009 23:35:17.699053  6033 net.cpp:163] Top shape: 180 512 13 13 (15575040)
I1009 23:35:17.699056  6033 layer_factory.hpp:76] Creating layer conv4
I1009 23:35:17.699064  6033 net.cpp:110] Creating Layer conv4
I1009 23:35:17.699069  6033 net.cpp:477] conv4 <- conv3
I1009 23:35:17.699074  6033 net.cpp:433] conv4 -> conv4
I1009 23:35:17.783006  6033 net.cpp:155] Setting up conv4
I1009 23:35:17.783031  6033 net.cpp:163] Top shape: 180 512 13 13 (15575040)
I1009 23:35:17.783042  6033 layer_factory.hpp:76] Creating layer relu4
I1009 23:35:17.783051  6033 net.cpp:110] Creating Layer relu4
I1009 23:35:17.783056  6033 net.cpp:477] relu4 <- conv4
I1009 23:35:17.783062  6033 net.cpp:419] relu4 -> conv4 (in-place)
I1009 23:35:17.783071  6033 net.cpp:155] Setting up relu4
I1009 23:35:17.783074  6033 net.cpp:163] Top shape: 180 512 13 13 (15575040)
I1009 23:35:17.783077  6033 layer_factory.hpp:76] Creating layer conv5
I1009 23:35:17.783085  6033 net.cpp:110] Creating Layer conv5
I1009 23:35:17.783088  6033 net.cpp:477] conv5 <- conv4
I1009 23:35:17.783094  6033 net.cpp:433] conv5 -> conv5
I1009 23:35:17.856883  6033 net.cpp:155] Setting up conv5
I1009 23:35:17.856909  6033 net.cpp:163] Top shape: 180 512 13 13 (15575040)
I1009 23:35:17.856923  6033 layer_factory.hpp:76] Creating layer relu5
I1009 23:35:17.856931  6033 net.cpp:110] Creating Layer relu5
I1009 23:35:17.856935  6033 net.cpp:477] relu5 <- conv5
I1009 23:35:17.856943  6033 net.cpp:419] relu5 -> conv5 (in-place)
I1009 23:35:17.856951  6033 net.cpp:155] Setting up relu5
I1009 23:35:17.856956  6033 net.cpp:163] Top shape: 180 512 13 13 (15575040)
I1009 23:35:17.856958  6033 layer_factory.hpp:76] Creating layer pool5
I1009 23:35:17.856964  6033 net.cpp:110] Creating Layer pool5
I1009 23:35:17.856967  6033 net.cpp:477] pool5 <- conv5
I1009 23:35:17.856971  6033 net.cpp:433] pool5 -> pool5
I1009 23:35:17.856978  6033 net.cpp:155] Setting up pool5
I1009 23:35:17.856982  6033 net.cpp:163] Top shape: 180 512 6 6 (3317760)
I1009 23:35:17.856986  6033 layer_factory.hpp:76] Creating layer fc6
I1009 23:35:17.856995  6033 net.cpp:110] Creating Layer fc6
I1009 23:35:17.856998  6033 net.cpp:477] fc6 <- pool5
I1009 23:35:17.857004  6033 net.cpp:433] fc6 -> fc6
I1009 23:35:20.259251  6033 net.cpp:155] Setting up fc6
I1009 23:35:20.259276  6033 net.cpp:163] Top shape: 180 4096 (737280)
I1009 23:35:20.259287  6033 layer_factory.hpp:76] Creating layer relu6
I1009 23:35:20.259297  6033 net.cpp:110] Creating Layer relu6
I1009 23:35:20.259301  6033 net.cpp:477] relu6 <- fc6
I1009 23:35:20.259307  6033 net.cpp:419] relu6 -> fc6 (in-place)
I1009 23:35:20.259315  6033 net.cpp:155] Setting up relu6
I1009 23:35:20.259320  6033 net.cpp:163] Top shape: 180 4096 (737280)
I1009 23:35:20.259323  6033 layer_factory.hpp:76] Creating layer drop6
I1009 23:35:20.259330  6033 net.cpp:110] Creating Layer drop6
I1009 23:35:20.259332  6033 net.cpp:477] drop6 <- fc6
I1009 23:35:20.259338  6033 net.cpp:419] drop6 -> fc6 (in-place)
I1009 23:35:20.259346  6033 net.cpp:155] Setting up drop6
I1009 23:35:20.259349  6033 net.cpp:163] Top shape: 180 4096 (737280)
I1009 23:35:20.259351  6033 layer_factory.hpp:76] Creating layer fc7
I1009 23:35:20.259359  6033 net.cpp:110] Creating Layer fc7
I1009 23:35:20.259361  6033 net.cpp:477] fc7 <- fc6
I1009 23:35:20.259366  6033 net.cpp:433] fc7 -> fc7
I1009 23:35:20.525213  6033 net.cpp:155] Setting up fc7
I1009 23:35:20.525238  6033 net.cpp:163] Top shape: 180 2048 (368640)
I1009 23:35:20.525249  6033 layer_factory.hpp:76] Creating layer relu7
I1009 23:35:20.525259  6033 net.cpp:110] Creating Layer relu7
I1009 23:35:20.525261  6033 net.cpp:477] relu7 <- fc7
I1009 23:35:20.525267  6033 net.cpp:419] relu7 -> fc7 (in-place)
I1009 23:35:20.525276  6033 net.cpp:155] Setting up relu7
I1009 23:35:20.525279  6033 net.cpp:163] Top shape: 180 2048 (368640)
I1009 23:35:20.525282  6033 layer_factory.hpp:76] Creating layer drop7
I1009 23:35:20.525288  6033 net.cpp:110] Creating Layer drop7
I1009 23:35:20.525291  6033 net.cpp:477] drop7 <- fc7
I1009 23:35:20.525295  6033 net.cpp:419] drop7 -> fc7 (in-place)
I1009 23:35:20.525300  6033 net.cpp:155] Setting up drop7
I1009 23:35:20.525305  6033 net.cpp:163] Top shape: 180 2048 (368640)
I1009 23:35:20.525306  6033 layer_factory.hpp:76] Creating layer fc8_gtea
I1009 23:35:20.525313  6033 net.cpp:110] Creating Layer fc8_gtea
I1009 23:35:20.525316  6033 net.cpp:477] fc8_gtea <- fc7
I1009 23:35:20.525322  6033 net.cpp:433] fc8_gtea -> fc8_gtea
I1009 23:35:20.526600  6033 net.cpp:155] Setting up fc8_gtea
I1009 23:35:20.526614  6033 net.cpp:163] Top shape: 180 10 (1800)
I1009 23:35:20.526620  6033 layer_factory.hpp:76] Creating layer loss
I1009 23:35:20.526628  6033 net.cpp:110] Creating Layer loss
I1009 23:35:20.526630  6033 net.cpp:477] loss <- fc8_gtea
I1009 23:35:20.526634  6033 net.cpp:477] loss <- label
I1009 23:35:20.526639  6033 net.cpp:433] loss -> loss
I1009 23:35:20.526646  6033 layer_factory.hpp:76] Creating layer loss
I1009 23:35:20.526700  6033 net.cpp:155] Setting up loss
…
